…
Namespace(aux=True, aux_weight=0.2, backbone='resnest101', base_size=520, batch_size=2, checkname='default', crop_size=480, dataset='minc_seg', dist_backend='nccl', dist_url='tcp://localhost:23456', epochs=120, eval=False, export=None, ft=False, lr=0.000125, lr_scheduler='poly', model='deeplab', model_zoo=None, momentum=0.9, rank=0, rectify=False, rectify_avg=False, resume='/home/lzj/materialSeg_ws/src/PyTorch-Encoding/experiments/segmentation/runs/minc_seg/deeplab/resnest101/default/checkpoint.pth.tar', se_loss=False, se_weight=0.2, seed=1, start_epoch=0, test_batch_size=16, test_folder=None, test_val=False, train_split='train', weight_decay=0.0001, workers=8, world_size=1)
rank: 0 / 1
BaseDataset: base_size 520, crop_size 480
/home/lzj/.encoding/data/minc_dataset/images/training
DeepLabV3(
  (pretrained): ResNet(
    (conv1): Sequential(
      (0): Conv2d(3, 64, kernel_size=(3, 3), stride=(2, 2), padding=(1, 1), bias=False)
      (1): DistSyncBatchNorm(64, eps=1e-05, momentum=0.1, affine=True, track_running_stats=True)
      (2): ReLU(inplace=True)
      (3): Conv2d(64, 64, kernel_size=(3, 3), stride=(1, 1), padding=(1, 1), bias=False)
      (4): DistSyncBatchNorm(64, eps=1e-05, momentum=0.1, affine=True, track_running_stats=True)
      (5): ReLU(inplace=True)
      (6): Conv2d(64, 128, kernel_size=(3, 3), stride=(1, 1), padding=(1, 1), bias=False)
    )
    (bn1): DistSyncBatchNorm(128, eps=1e-05, momentum=0.1, affine=True, track_running_stats=True)
    (relu): ReLU(inplace=True)
    (maxpool): MaxPool2d(kernel_size=3, stride=2, padding=1, dilation=1, ceil_mode=False)
    (layer1): Sequential(
      (0): Bottleneck(
        (conv1): Conv2d(128, 64, kernel_size=(1, 1), stride=(1, 1), bias=False)
        (bn1): DistSyncBatchNorm(64, eps=1e-05, momentum=0.1, affine=True, track_running_stats=True)
        (conv2): SplAtConv2d(
          (conv): Conv2d(64, 128, kernel_size=(3, 3), stride=(1, 1), padding=(1, 1), groups=2, bias=False)
          (bn0): DistSyncBatchNorm(128, eps=1e-05, momentum=0.1, affine=True, track_running_stats=True)
          (relu): ReLU(inplace=True)
          (fc1): Conv2d(64, 32, kernel_size=(1, 1), stride=(1, 1))
          (bn1): DistSyncBatchNorm(32, eps=1e-05, momentum=0.1, affine=True, track_running_stats=True)
          (fc2): Conv2d(32, 128, kernel_size=(1, 1), stride=(1, 1))
          (rsoftmax): rSoftMax()
        )
        (conv3): Conv2d(64, 256, kernel_size=(1, 1), stride=(1, 1), bias=False)
        (bn3): DistSyncBatchNorm(256, eps=1e-05, momentum=0.1, affine=True, track_running_stats=True)
        (relu): ReLU(inplace=True)
        (downsample): Sequential(
          (0): AvgPool2d(kernel_size=1, stride=1, padding=0)
          (1): Conv2d(128, 256, kernel_size=(1, 1), stride=(1, 1), bias=False)
          (2): DistSyncBatchNorm(256, eps=1e-05, momentum=0.1, affine=True, track_running_stats=True)
        )
      )
      (1): Bottleneck(
        (conv1): Conv2d(256, 64, kernel_size=(1, 1), stride=(1, 1), bias=False)
        (bn1): DistSyncBatchNorm(64, eps=1e-05, momentum=0.1, affine=True, track_running_stats=True)
        (conv2): SplAtConv2d(
          (conv): Conv2d(64, 128, kernel_size=(3, 3), stride=(1, 1), padding=(1, 1), groups=2, bias=False)
          (bn0): DistSyncBatchNorm(128, eps=1e-05, momentum=0.1, affine=True, track_running_stats=True)
          (relu): ReLU(inplace=True)
          (fc1): Conv2d(64, 32, kernel_size=(1, 1), stride=(1, 1))
          (bn1): DistSyncBatchNorm(32, eps=1e-05, momentum=0.1, affine=True, track_running_stats=True)
          (fc2): Conv2d(32, 128, kernel_size=(1, 1), stride=(1, 1))
          (rsoftmax): rSoftMax()
        )
        (conv3): Conv2d(64, 256, kernel_size=(1, 1), stride=(1, 1), bias=False)
        (bn3): DistSyncBatchNorm(256, eps=1e-05, momentum=0.1, affine=True, track_running_stats=True)
        (relu): ReLU(inplace=True)
      )
      (2): Bottleneck(
        (conv1): Conv2d(256, 64, kernel_size=(1, 1), stride=(1, 1), bias=False)
        (bn1): DistSyncBatchNorm(64, eps=1e-05, momentum=0.1, affine=True, track_running_stats=True)
        (conv2): SplAtConv2d(
          (conv): Conv2d(64, 128, kernel_size=(3, 3), stride=(1, 1), padding=(1, 1), groups=2, bias=False)
          (bn0): DistSyncBatchNorm(128, eps=1e-05, momentum=0.1, affine=True, track_running_stats=True)
          (relu): ReLU(inplace=True)
          (fc1): Conv2d(64, 32, kernel_size=(1, 1), stride=(1, 1))
          (bn1): DistSyncBatchNorm(32, eps=1e-05, momentum=0.1, affine=True, track_running_stats=True)
          (fc2): Conv2d(32, 128, kernel_size=(1, 1), stride=(1, 1))
          (rsoftmax): rSoftMax()
        )
        (conv3): Conv2d(64, 256, kernel_size=(1, 1), stride=(1, 1), bias=False)
        (bn3): DistSyncBatchNorm(256, eps=1e-05, momentum=0.1, affine=True, track_running_stats=True)
        (relu): ReLU(inplace=True)
      )
    )
    (layer2): Sequential(
      (0): Bottleneck(
        (conv1): Conv2d(256, 128, kernel_size=(1, 1), stride=(1, 1), bias=False)
        (bn1): DistSyncBatchNorm(128, eps=1e-05, momentum=0.1, affine=True, track_running_stats=True)
        (avd_layer): AvgPool2d(kernel_size=3, stride=2, padding=1)
        (conv2): SplAtConv2d(
          (conv): Conv2d(128, 256, kernel_size=(3, 3), stride=(1, 1), padding=(1, 1), groups=2, bias=False)
          (bn0): DistSyncBatchNorm(256, eps=1e-05, momentum=0.1, affine=True, track_running_stats=True)
          (relu): ReLU(inplace=True)
          (fc1): Conv2d(128, 64, kernel_size=(1, 1), stride=(1, 1))
          (bn1): DistSyncBatchNorm(64, eps=1e-05, momentum=0.1, affine=True, track_running_stats=True)
          (fc2): Conv2d(64, 256, kernel_size=(1, 1), stride=(1, 1))
          (rsoftmax): rSoftMax()
        )
        (conv3): Conv2d(128, 512, kernel_size=(1, 1), stride=(1, 1), bias=False)
        (bn3): DistSyncBatchNorm(512, eps=1e-05, momentum=0.1, affine=True, track_running_stats=True)
        (relu): ReLU(inplace=True)
        (downsample): Sequential(
          (0): AvgPool2d(kernel_size=2, stride=2, padding=0)
          (1): Conv2d(256, 512, kernel_size=(1, 1), stride=(1, 1), bias=False)
          (2): DistSyncBatchNorm(512, eps=1e-05, momentum=0.1, affine=True, track_running_stats=True)
        )
      )
      (1): Bottleneck(
        (conv1): Conv2d(512, 128, kernel_size=(1, 1), stride=(1, 1), bias=False)
        (bn1): DistSyncBatchNorm(128, eps=1e-05, momentum=0.1, affine=True, track_running_stats=True)
        (conv2): SplAtConv2d(
          (conv): Conv2d(128, 256, kernel_size=(3, 3), stride=(1, 1), padding=(1, 1), groups=2, bias=False)
          (bn0): DistSyncBatchNorm(256, eps=1e-05, momentum=0.1, affine=True, track_running_stats=True)
          (relu): ReLU(inplace=True)
          (fc1): Conv2d(128, 64, kernel_size=(1, 1), stride=(1, 1))
          (bn1): DistSyncBatchNorm(64, eps=1e-05, momentum=0.1, affine=True, track_running_stats=True)
          (fc2): Conv2d(64, 256, kernel_size=(1, 1), stride=(1, 1))
          (rsoftmax): rSoftMax()
        )
        (conv3): Conv2d(128, 512, kernel_size=(1, 1), stride=(1, 1), bias=False)
        (bn3): DistSyncBatchNorm(512, eps=1e-05, momentum=0.1, affine=True, track_running_stats=True)
        (relu): ReLU(inplace=True)
      )
      (2): Bottleneck(
        (conv1): Conv2d(512, 128, kernel_size=(1, 1), stride=(1, 1), bias=False)
        (bn1): DistSyncBatchNorm(128, eps=1e-05, momentum=0.1, affine=True, track_running_stats=True)
        (conv2): SplAtConv2d(
          (conv): Conv2d(128, 256, kernel_size=(3, 3), stride=(1, 1), padding=(1, 1), groups=2, bias=False)
          (bn0): DistSyncBatchNorm(256, eps=1e-05, momentum=0.1, affine=True, track_running_stats=True)
          (relu): ReLU(inplace=True)
          (fc1): Conv2d(128, 64, kernel_size=(1, 1), stride=(1, 1))
          (bn1): DistSyncBatchNorm(64, eps=1e-05, momentum=0.1, affine=True, track_running_stats=True)
          (fc2): Conv2d(64, 256, kernel_size=(1, 1), stride=(1, 1))
          (rsoftmax): rSoftMax()
        )
        (conv3): Conv2d(128, 512, kernel_size=(1, 1), stride=(1, 1), bias=False)
        (bn3): DistSyncBatchNorm(512, eps=1e-05, momentum=0.1, affine=True, track_running_stats=True)
        (relu): ReLU(inplace=True)
      )
      (3): Bottleneck(
        (conv1): Conv2d(512, 128, kernel_size=(1, 1), stride=(1, 1), bias=False)
        (bn1): DistSyncBatchNorm(128, eps=1e-05, momentum=0.1, affine=True, track_running_stats=True)
        (conv2): SplAtConv2d(
          (conv): Conv2d(128, 256, kernel_size=(3, 3), stride=(1, 1), padding=(1, 1), groups=2, bias=False)
          (bn0): DistSyncBatchNorm(256, eps=1e-05, momentum=0.1, affine=True, track_running_stats=True)
          (relu): ReLU(inplace=True)
          (fc1): Conv2d(128, 64, kernel_size=(1, 1), stride=(1, 1))
          (bn1): DistSyncBatchNorm(64, eps=1e-05, momentum=0.1, affine=True, track_running_stats=True)
          (fc2): Conv2d(64, 256, kernel_size=(1, 1), stride=(1, 1))
          (rsoftmax): rSoftMax()
        )
        (conv3): Conv2d(128, 512, kernel_size=(1, 1), stride=(1, 1), bias=False)
        (bn3): DistSyncBatchNorm(512, eps=1e-05, momentum=0.1, affine=True, track_running_stats=True)
        (relu): ReLU(inplace=True)
      )
    )
    (layer3): Sequential(
      (0): Bottleneck(
        (conv1): Conv2d(512, 256, kernel_size=(1, 1), stride=(1, 1), bias=False)
        (bn1): DistSyncBatchNorm(256, eps=1e-05, momentum=0.1, affine=True, track_running_stats=True)
        (avd_layer): AvgPool2d(kernel_size=3, stride=1, padding=1)
        (conv2): SplAtConv2d(
          (conv): Conv2d(256, 512, kernel_size=(3, 3), stride=(1, 1), padding=(1, 1), groups=2, bias=False)
          (bn0): DistSyncBatchNorm(512, eps=1e-05, momentum=0.1, affine=True, track_running_stats=True)
          (relu): ReLU(inplace=True)
          (fc1): Conv2d(256, 128, kernel_size=(1, 1), stride=(1, 1))
          (bn1): DistSyncBatchNorm(128, eps=1e-05, momentum=0.1, affine=True, track_running_stats=True)
          (fc2): Conv2d(128, 512, kernel_size=(1, 1), stride=(1, 1))
          (rsoftmax): rSoftMax()
        )
        (conv3): Conv2d(256, 1024, kernel_size=(1, 1), stride=(1, 1), bias=False)
        (bn3): DistSyncBatchNorm(1024, eps=1e-05, momentum=0.1, affine=True, track_running_stats=True)
        (relu): ReLU(inplace=True)
        (downsample): Sequential(
          (0): AvgPool2d(kernel_size=1, stride=1, padding=0)
          (1): Conv2d(512, 1024, kernel_size=(1, 1), stride=(1, 1), bias=False)
          (2): DistSyncBatchNorm(1024, eps=1e-05, momentum=0.1, affine=True, track_running_stats=True)
        )
      )
      (1): Bottleneck(
        (conv1): Conv2d(1024, 256, kernel_size=(1, 1), stride=(1, 1), bias=False)
        (bn1): DistSyncBatchNorm(256, eps=1e-05, momentum=0.1, affine=True, track_running_stats=True)
        (conv2): SplAtConv2d(
          (conv): Conv2d(256, 512, kernel_size=(3, 3), stride=(1, 1), padding=(2, 2), dilation=(2, 2), groups=2, bias=False)
          (bn0): DistSyncBatchNorm(512, eps=1e-05, momentum=0.1, affine=True, track_running_stats=True)
          (relu): ReLU(inplace=True)
          (fc1): Conv2d(256, 128, kernel_size=(1, 1), stride=(1, 1))
          (bn1): DistSyncBatchNorm(128, eps=1e-05, momentum=0.1, affine=True, track_running_stats=True)
          (fc2): Conv2d(128, 512, kernel_size=(1, 1), stride=(1, 1))
          (rsoftmax): rSoftMax()
        )
        (conv3): Conv2d(256, 1024, kernel_size=(1, 1), stride=(1, 1), bias=False)
        (bn3): DistSyncBatchNorm(1024, eps=1e-05, momentum=0.1, affine=True, track_running_stats=True)
        (relu): ReLU(inplace=True)
      )
      (2): Bottleneck(
        (conv1): Conv2d(1024, 256, kernel_size=(1, 1), stride=(1, 1), bias=False)
        (bn1): DistSyncBatchNorm(256, eps=1e-05, momentum=0.1, affine=True, track_running_stats=True)
        (conv2): SplAtConv2d(
          (conv): Conv2d(256, 512, kernel_size=(3, 3), stride=(1, 1), padding=(2, 2), dilation=(2, 2), groups=2, bias=False)
          (bn0): DistSyncBatchNorm(512, eps=1e-05, momentum=0.1, affine=True, track_running_stats=True)
          (relu): ReLU(inplace=True)
          (fc1): Conv2d(256, 128, kernel_size=(1, 1), stride=(1, 1))
          (bn1): DistSyncBatchNorm(128, eps=1e-05, momentum=0.1, affine=True, track_running_stats=True)
          (fc2): Conv2d(128, 512, kernel_size=(1, 1), stride=(1, 1))
          (rsoftmax): rSoftMax()
        )
        (conv3): Conv2d(256, 1024, kernel_size=(1, 1), stride=(1, 1), bias=False)
        (bn3): DistSyncBatchNorm(1024, eps=1e-05, momentum=0.1, affine=True, track_running_stats=True)
        (relu): ReLU(inplace=True)
      )
      (3): Bottleneck(
        (conv1): Conv2d(1024, 256, kernel_size=(1, 1), stride=(1, 1), bias=False)
        (bn1): DistSyncBatchNorm(256, eps=1e-05, momentum=0.1, affine=True, track_running_stats=True)
        (conv2): SplAtConv2d(
          (conv): Conv2d(256, 512, kernel_size=(3, 3), stride=(1, 1), padding=(2, 2), dilation=(2, 2), groups=2, bias=False)
          (bn0): DistSyncBatchNorm(512, eps=1e-05, momentum=0.1, affine=True, track_running_stats=True)
          (relu): ReLU(inplace=True)
          (fc1): Conv2d(256, 128, kernel_size=(1, 1), stride=(1, 1))
          (bn1): DistSyncBatchNorm(128, eps=1e-05, momentum=0.1, affine=True, track_running_stats=True)
          (fc2): Conv2d(128, 512, kernel_size=(1, 1), stride=(1, 1))
          (rsoftmax): rSoftMax()
        )
        (conv3): Conv2d(256, 1024, kernel_size=(1, 1), stride=(1, 1), bias=False)
        (bn3): DistSyncBatchNorm(1024, eps=1e-05, momentum=0.1, affine=True, track_running_stats=True)
        (relu): ReLU(inplace=True)
      )
      (4): Bottleneck(
        (conv1): Conv2d(1024, 256, kernel_size=(1, 1), stride=(1, 1), bias=False)
        (bn1): DistSyncBatchNorm(256, eps=1e-05, momentum=0.1, affine=True, track_running_stats=True)
        (conv2): SplAtConv2d(
          (conv): Conv2d(256, 512, kernel_size=(3, 3), stride=(1, 1), padding=(2, 2), dilation=(2, 2), groups=2, bias=False)
          (bn0): DistSyncBatchNorm(512, eps=1e-05, momentum=0.1, affine=True, track_running_stats=True)
          (relu): ReLU(inplace=True)
          (fc1): Conv2d(256, 128, kernel_size=(1, 1), stride=(1, 1))
          (bn1): DistSyncBatchNorm(128, eps=1e-05, momentum=0.1, affine=True, track_running_stats=True)
          (fc2): Conv2d(128, 512, kernel_size=(1, 1), stride=(1, 1))
          (rsoftmax): rSoftMax()
        )
        (conv3): Conv2d(256, 1024, kernel_size=(1, 1), stride=(1, 1), bias=False)
        (bn3): DistSyncBatchNorm(1024, eps=1e-05, momentum=0.1, affine=True, track_running_stats=True)
        (relu): ReLU(inplace=True)
      )
      (5): Bottleneck(
        (conv1): Conv2d(1024, 256, kernel_size=(1, 1), stride=(1, 1), bias=False)
        (bn1): DistSyncBatchNorm(256, eps=1e-05, momentum=0.1, affine=True, track_running_stats=True)
        (conv2): SplAtConv2d(
          (conv): Conv2d(256, 512, kernel_size=(3, 3), stride=(1, 1), padding=(2, 2), dilation=(2, 2), groups=2, bias=False)
          (bn0): DistSyncBatchNorm(512, eps=1e-05, momentum=0.1, affine=True, track_running_stats=True)
          (relu): ReLU(inplace=True)
          (fc1): Conv2d(256, 128, kernel_size=(1, 1), stride=(1, 1))
          (bn1): DistSyncBatchNorm(128, eps=1e-05, momentum=0.1, affine=True, track_running_stats=True)
          (fc2): Conv2d(128, 512, kernel_size=(1, 1), stride=(1, 1))
          (rsoftmax): rSoftMax()
        )
        (conv3): Conv2d(256, 1024, kernel_size=(1, 1), stride=(1, 1), bias=False)
        (bn3): DistSyncBatchNorm(1024, eps=1e-05, momentum=0.1, affine=True, track_running_stats=True)
        (relu): ReLU(inplace=True)
      )
      (6): Bottleneck(
        (conv1): Conv2d(1024, 256, kernel_size=(1, 1), stride=(1, 1), bias=False)
        (bn1): DistSyncBatchNorm(256, eps=1e-05, momentum=0.1, affine=True, track_running_stats=True)
        (conv2): SplAtConv2d(
          (conv): Conv2d(256, 512, kernel_size=(3, 3), stride=(1, 1), padding=(2, 2), dilation=(2, 2), groups=2, bias=False)
          (bn0): DistSyncBatchNorm(512, eps=1e-05, momentum=0.1, affine=True, track_running_stats=True)
          (relu): ReLU(inplace=True)
          (fc1): Conv2d(256, 128, kernel_size=(1, 1), stride=(1, 1))
          (bn1): DistSyncBatchNorm(128, eps=1e-05, momentum=0.1, affine=True, track_running_stats=True)
          (fc2): Conv2d(128, 512, kernel_size=(1, 1), stride=(1, 1))
          (rsoftmax): rSoftMax()
        )
        (conv3): Conv2d(256, 1024, kernel_size=(1, 1), stride=(1, 1), bias=False)
        (bn3): DistSyncBatchNorm(1024, eps=1e-05, momentum=0.1, affine=True, track_running_stats=True)
        (relu): ReLU(inplace=True)
      )
      (7): Bottleneck(
        (conv1): Conv2d(1024, 256, kernel_size=(1, 1), stride=(1, 1), bias=False)
        (bn1): DistSyncBatchNorm(256, eps=1e-05, momentum=0.1, affine=True, track_running_stats=True)
        (conv2): SplAtConv2d(
          (conv): Conv2d(256, 512, kernel_size=(3, 3), stride=(1, 1), padding=(2, 2), dilation=(2, 2), groups=2, bias=False)
          (bn0): DistSyncBatchNorm(512, eps=1e-05, momentum=0.1, affine=True, track_running_stats=True)
          (relu): ReLU(inplace=True)
          (fc1): Conv2d(256, 128, kernel_size=(1, 1), stride=(1, 1))
          (bn1): DistSyncBatchNorm(128, eps=1e-05, momentum=0.1, affine=True, track_running_stats=True)
          (fc2): Conv2d(128, 512, kernel_size=(1, 1), stride=(1, 1))
          (rsoftmax): rSoftMax()
        )
        (conv3): Conv2d(256, 1024, kernel_size=(1, 1), stride=(1, 1), bias=False)
        (bn3): DistSyncBatchNorm(1024, eps=1e-05, momentum=0.1, affine=True, track_running_stats=True)
        (relu): ReLU(inplace=True)
      )
      (8): Bottleneck(
        (conv1): Conv2d(1024, 256, kernel_size=(1, 1), stride=(1, 1), bias=False)
        (bn1): DistSyncBatchNorm(256, eps=1e-05, momentum=0.1, affine=True, track_running_stats=True)
        (conv2): SplAtConv2d(
          (conv): Conv2d(256, 512, kernel_size=(3, 3), stride=(1, 1), padding=(2, 2), dilation=(2, 2), groups=2, bias=False)
          (bn0): DistSyncBatchNorm(512, eps=1e-05, momentum=0.1, affine=True, track_running_stats=True)
          (relu): ReLU(inplace=True)
          (fc1): Conv2d(256, 128, kernel_size=(1, 1), stride=(1, 1))
          (bn1): DistSyncBatchNorm(128, eps=1e-05, momentum=0.1, affine=True, track_running_stats=True)
          (fc2): Conv2d(128, 512, kernel_size=(1, 1), stride=(1, 1))
          (rsoftmax): rSoftMax()
        )
        (conv3): Conv2d(256, 1024, kernel_size=(1, 1), stride=(1, 1), bias=False)
        (bn3): DistSyncBatchNorm(1024, eps=1e-05, momentum=0.1, affine=True, track_running_stats=True)
        (relu): ReLU(inplace=True)
      )
      (9): Bottleneck(
        (conv1): Conv2d(1024, 256, kernel_size=(1, 1), stride=(1, 1), bias=False)
        (bn1): DistSyncBatchNorm(256, eps=1e-05, momentum=0.1, affine=True, track_running_stats=True)
        (conv2): SplAtConv2d(
          (conv): Conv2d(256, 512, kernel_size=(3, 3), stride=(1, 1), padding=(2, 2), dilation=(2, 2), groups=2, bias=False)
          (bn0): DistSyncBatchNorm(512, eps=1e-05, momentum=0.1, affine=True, track_running_stats=True)
          (relu): ReLU(inplace=True)
          (fc1): Conv2d(256, 128, kernel_size=(1, 1), stride=(1, 1))
          (bn1): DistSyncBatchNorm(128, eps=1e-05, momentum=0.1, affine=True, track_running_stats=True)
          (fc2): Conv2d(128, 512, kernel_size=(1, 1), stride=(1, 1))
          (rsoftmax): rSoftMax()
        )
        (conv3): Conv2d(256, 1024, kernel_size=(1, 1), stride=(1, 1), bias=False)
        (bn3): DistSyncBatchNorm(1024, eps=1e-05, momentum=0.1, affine=True, track_running_stats=True)
        (relu): ReLU(inplace=True)
      )
      (10): Bottleneck(
        (conv1): Conv2d(1024, 256, kernel_size=(1, 1), stride=(1, 1), bias=False)
        (bn1): DistSyncBatchNorm(256, eps=1e-05, momentum=0.1, affine=True, track_running_stats=True)
        (conv2): SplAtConv2d(
          (conv): Conv2d(256, 512, kernel_size=(3, 3), stride=(1, 1), padding=(2, 2), dilation=(2, 2), groups=2, bias=False)
          (bn0): DistSyncBatchNorm(512, eps=1e-05, momentum=0.1, affine=True, track_running_stats=True)
          (relu): ReLU(inplace=True)
          (fc1): Conv2d(256, 128, kernel_size=(1, 1), stride=(1, 1))
          (bn1): DistSyncBatchNorm(128, eps=1e-05, momentum=0.1, affine=True, track_running_stats=True)
          (fc2): Conv2d(128, 512, kernel_size=(1, 1), stride=(1, 1))
          (rsoftmax): rSoftMax()
        )
        (conv3): Conv2d(256, 1024, kernel_size=(1, 1), stride=(1, 1), bias=False)
        (bn3): DistSyncBatchNorm(1024, eps=1e-05, momentum=0.1, affine=True, track_running_stats=True)
        (relu): ReLU(inplace=True)
      )
      (11): Bottleneck(
        (conv1): Conv2d(1024, 256, kernel_size=(1, 1), stride=(1, 1), bias=False)
        (bn1): DistSyncBatchNorm(256, eps=1e-05, momentum=0.1, affine=True, track_running_stats=True)
        (conv2): SplAtConv2d(
          (conv): Conv2d(256, 512, kernel_size=(3, 3), stride=(1, 1), padding=(2, 2), dilation=(2, 2), groups=2, bias=False)
          (bn0): DistSyncBatchNorm(512, eps=1e-05, momentum=0.1, affine=True, track_running_stats=True)
          (relu): ReLU(inplace=True)
          (fc1): Conv2d(256, 128, kernel_size=(1, 1), stride=(1, 1))
          (bn1): DistSyncBatchNorm(128, eps=1e-05, momentum=0.1, affine=True, track_running_stats=True)
          (fc2): Conv2d(128, 512, kernel_size=(1, 1), stride=(1, 1))
          (rsoftmax): rSoftMax()
        )
        (conv3): Conv2d(256, 1024, kernel_size=(1, 1), stride=(1, 1), bias=False)
        (bn3): DistSyncBatchNorm(1024, eps=1e-05, momentum=0.1, affine=True, track_running_stats=True)
        (relu): ReLU(inplace=True)
      )
      (12): Bottleneck(
        (conv1): Conv2d(1024, 256, kernel_size=(1, 1), stride=(1, 1), bias=False)
        (bn1): DistSyncBatchNorm(256, eps=1e-05, momentum=0.1, affine=True, track_running_stats=True)
        (conv2): SplAtConv2d(
          (conv): Conv2d(256, 512, kernel_size=(3, 3), stride=(1, 1), padding=(2, 2), dilation=(2, 2), groups=2, bias=False)
          (bn0): DistSyncBatchNorm(512, eps=1e-05, momentum=0.1, affine=True, track_running_stats=True)
          (relu): ReLU(inplace=True)
          (fc1): Conv2d(256, 128, kernel_size=(1, 1), stride=(1, 1))
          (bn1): DistSyncBatchNorm(128, eps=1e-05, momentum=0.1, affine=True, track_running_stats=True)
          (fc2): Conv2d(128, 512, kernel_size=(1, 1), stride=(1, 1))
          (rsoftmax): rSoftMax()
        )
        (conv3): Conv2d(256, 1024, kernel_size=(1, 1), stride=(1, 1), bias=False)
        (bn3): DistSyncBatchNorm(1024, eps=1e-05, momentum=0.1, affine=True, track_running_stats=True)
        (relu): ReLU(inplace=True)
      )
      (13): Bottleneck(
        (conv1): Conv2d(1024, 256, kernel_size=(1, 1), stride=(1, 1), bias=False)
        (bn1): DistSyncBatchNorm(256, eps=1e-05, momentum=0.1, affine=True, track_running_stats=True)
        (conv2): SplAtConv2d(
          (conv): Conv2d(256, 512, kernel_size=(3, 3), stride=(1, 1), padding=(2, 2), dilation=(2, 2), groups=2, bias=False)
          (bn0): DistSyncBatchNorm(512, eps=1e-05, momentum=0.1, affine=True, track_running_stats=True)
          (relu): ReLU(inplace=True)
          (fc1): Conv2d(256, 128, kernel_size=(1, 1), stride=(1, 1))
          (bn1): DistSyncBatchNorm(128, eps=1e-05, momentum=0.1, affine=True, track_running_stats=True)
          (fc2): Conv2d(128, 512, kernel_size=(1, 1), stride=(1, 1))
          (rsoftmax): rSoftMax()
        )
        (conv3): Conv2d(256, 1024, kernel_size=(1, 1), stride=(1, 1), bias=False)
        (bn3): DistSyncBatchNorm(1024, eps=1e-05, momentum=0.1, affine=True, track_running_stats=True)
        (relu): ReLU(inplace=True)
      )
      (14): Bottleneck(
        (conv1): Conv2d(1024, 256, kernel_size=(1, 1), stride=(1, 1), bias=False)
        (bn1): DistSyncBatchNorm(256, eps=1e-05, momentum=0.1, affine=True, track_running_stats=True)
        (conv2): SplAtConv2d(
          (conv): Conv2d(256, 512, kernel_size=(3, 3), stride=(1, 1), padding=(2, 2), dilation=(2, 2), groups=2, bias=False)
          (bn0): DistSyncBatchNorm(512, eps=1e-05, momentum=0.1, affine=True, track_running_stats=True)
          (relu): ReLU(inplace=True)
          (fc1): Conv2d(256, 128, kernel_size=(1, 1), stride=(1, 1))
          (bn1): DistSyncBatchNorm(128, eps=1e-05, momentum=0.1, affine=True, track_running_stats=True)
          (fc2): Conv2d(128, 512, kernel_size=(1, 1), stride=(1, 1))
          (rsoftmax): rSoftMax()
        )
        (conv3): Conv2d(256, 1024, kernel_size=(1, 1), stride=(1, 1), bias=False)
        (bn3): DistSyncBatchNorm(1024, eps=1e-05, momentum=0.1, affine=True, track_running_stats=True)
        (relu): ReLU(inplace=True)
      )
      (15): Bottleneck(
        (conv1): Conv2d(1024, 256, kernel_size=(1, 1), stride=(1, 1), bias=False)
        (bn1): DistSyncBatchNorm(256, eps=1e-05, momentum=0.1, affine=True, track_running_stats=True)
        (conv2): SplAtConv2d(
          (conv): Conv2d(256, 512, kernel_size=(3, 3), stride=(1, 1), padding=(2, 2), dilation=(2, 2), groups=2, bias=False)
          (bn0): DistSyncBatchNorm(512, eps=1e-05, momentum=0.1, affine=True, track_running_stats=True)
          (relu): ReLU(inplace=True)
          (fc1): Conv2d(256, 128, kernel_size=(1, 1), stride=(1, 1))
          (bn1): DistSyncBatchNorm(128, eps=1e-05, momentum=0.1, affine=True, track_running_stats=True)
          (fc2): Conv2d(128, 512, kernel_size=(1, 1), stride=(1, 1))
          (rsoftmax): rSoftMax()
        )
        (conv3): Conv2d(256, 1024, kernel_size=(1, 1), stride=(1, 1), bias=False)
        (bn3): DistSyncBatchNorm(1024, eps=1e-05, momentum=0.1, affine=True, track_running_stats=True)
        (relu): ReLU(inplace=True)
      )
      (16): Bottleneck(
        (conv1): Conv2d(1024, 256, kernel_size=(1, 1), stride=(1, 1), bias=False)
        (bn1): DistSyncBatchNorm(256, eps=1e-05, momentum=0.1, affine=True, track_running_stats=True)
        (conv2): SplAtConv2d(
          (conv): Conv2d(256, 512, kernel_size=(3, 3), stride=(1, 1), padding=(2, 2), dilation=(2, 2), groups=2, bias=False)
          (bn0): DistSyncBatchNorm(512, eps=1e-05, momentum=0.1, affine=True, track_running_stats=True)
          (relu): ReLU(inplace=True)
          (fc1): Conv2d(256, 128, kernel_size=(1, 1), stride=(1, 1))
          (bn1): DistSyncBatchNorm(128, eps=1e-05, momentum=0.1, affine=True, track_running_stats=True)
          (fc2): Conv2d(128, 512, kernel_size=(1, 1), stride=(1, 1))
          (rsoftmax): rSoftMax()
        )
        (conv3): Conv2d(256, 1024, kernel_size=(1, 1), stride=(1, 1), bias=False)
        (bn3): DistSyncBatchNorm(1024, eps=1e-05, momentum=0.1, affine=True, track_running_stats=True)
        (relu): ReLU(inplace=True)
      )
      (17): Bottleneck(
        (conv1): Conv2d(1024, 256, kernel_size=(1, 1), stride=(1, 1), bias=False)
        (bn1): DistSyncBatchNorm(256, eps=1e-05, momentum=0.1, affine=True, track_running_stats=True)
        (conv2): SplAtConv2d(
          (conv): Conv2d(256, 512, kernel_size=(3, 3), stride=(1, 1), padding=(2, 2), dilation=(2, 2), groups=2, bias=False)
          (bn0): DistSyncBatchNorm(512, eps=1e-05, momentum=0.1, affine=True, track_running_stats=True)
          (relu): ReLU(inplace=True)
          (fc1): Conv2d(256, 128, kernel_size=(1, 1), stride=(1, 1))
          (bn1): DistSyncBatchNorm(128, eps=1e-05, momentum=0.1, affine=True, track_running_stats=True)
          (fc2): Conv2d(128, 512, kernel_size=(1, 1), stride=(1, 1))
          (rsoftmax): rSoftMax()
        )
        (conv3): Conv2d(256, 1024, kernel_size=(1, 1), stride=(1, 1), bias=False)
        (bn3): DistSyncBatchNorm(1024, eps=1e-05, momentum=0.1, affine=True, track_running_stats=True)
        (relu): ReLU(inplace=True)
      )
      (18): Bottleneck(
        (conv1): Conv2d(1024, 256, kernel_size=(1, 1), stride=(1, 1), bias=False)
        (bn1): DistSyncBatchNorm(256, eps=1e-05, momentum=0.1, affine=True, track_running_stats=True)
        (conv2): SplAtConv2d(
          (conv): Conv2d(256, 512, kernel_size=(3, 3), stride=(1, 1), padding=(2, 2), dilation=(2, 2), groups=2, bias=False)
          (bn0): DistSyncBatchNorm(512, eps=1e-05, momentum=0.1, affine=True, track_running_stats=True)
          (relu): ReLU(inplace=True)
          (fc1): Conv2d(256, 128, kernel_size=(1, 1), stride=(1, 1))
          (bn1): DistSyncBatchNorm(128, eps=1e-05, momentum=0.1, affine=True, track_running_stats=True)
          (fc2): Conv2d(128, 512, kernel_size=(1, 1), stride=(1, 1))
          (rsoftmax): rSoftMax()
        )
        (conv3): Conv2d(256, 1024, kernel_size=(1, 1), stride=(1, 1), bias=False)
        (bn3): DistSyncBatchNorm(1024, eps=1e-05, momentum=0.1, affine=True, track_running_stats=True)
        (relu): ReLU(inplace=True)
      )
      (19): Bottleneck(
        (conv1): Conv2d(1024, 256, kernel_size=(1, 1), stride=(1, 1), bias=False)
        (bn1): DistSyncBatchNorm(256, eps=1e-05, momentum=0.1, affine=True, track_running_stats=True)
        (conv2): SplAtConv2d(
          (conv): Conv2d(256, 512, kernel_size=(3, 3), stride=(1, 1), padding=(2, 2), dilation=(2, 2), groups=2, bias=False)
          (bn0): DistSyncBatchNorm(512, eps=1e-05, momentum=0.1, affine=True, track_running_stats=True)
          (relu): ReLU(inplace=True)
          (fc1): Conv2d(256, 128, kernel_size=(1, 1), stride=(1, 1))
          (bn1): DistSyncBatchNorm(128, eps=1e-05, momentum=0.1, affine=True, track_running_stats=True)
          (fc2): Conv2d(128, 512, kernel_size=(1, 1), stride=(1, 1))
          (rsoftmax): rSoftMax()
        )
        (conv3): Conv2d(256, 1024, kernel_size=(1, 1), stride=(1, 1), bias=False)
        (bn3): DistSyncBatchNorm(1024, eps=1e-05, momentum=0.1, affine=True, track_running_stats=True)
        (relu): ReLU(inplace=True)
      )
      (20): Bottleneck(
        (conv1): Conv2d(1024, 256, kernel_size=(1, 1), stride=(1, 1), bias=False)
        (bn1): DistSyncBatchNorm(256, eps=1e-05, momentum=0.1, affine=True, track_running_stats=True)
        (conv2): SplAtConv2d(
          (conv): Conv2d(256, 512, kernel_size=(3, 3), stride=(1, 1), padding=(2, 2), dilation=(2, 2), groups=2, bias=False)
          (bn0): DistSyncBatchNorm(512, eps=1e-05, momentum=0.1, affine=True, track_running_stats=True)
          (relu): ReLU(inplace=True)
          (fc1): Conv2d(256, 128, kernel_size=(1, 1), stride=(1, 1))
          (bn1): DistSyncBatchNorm(128, eps=1e-05, momentum=0.1, affine=True, track_running_stats=True)
          (fc2): Conv2d(128, 512, kernel_size=(1, 1), stride=(1, 1))
          (rsoftmax): rSoftMax()
        )
        (conv3): Conv2d(256, 1024, kernel_size=(1, 1), stride=(1, 1), bias=False)
        (bn3): DistSyncBatchNorm(1024, eps=1e-05, momentum=0.1, affine=True, track_running_stats=True)
        (relu): ReLU(inplace=True)
      )
      (21): Bottleneck(
        (conv1): Conv2d(1024, 256, kernel_size=(1, 1), stride=(1, 1), bias=False)
        (bn1): DistSyncBatchNorm(256, eps=1e-05, momentum=0.1, affine=True, track_running_stats=True)
        (conv2): SplAtConv2d(
          (conv): Conv2d(256, 512, kernel_size=(3, 3), stride=(1, 1), padding=(2, 2), dilation=(2, 2), groups=2, bias=False)
          (bn0): DistSyncBatchNorm(512, eps=1e-05, momentum=0.1, affine=True, track_running_stats=True)
          (relu): ReLU(inplace=True)
          (fc1): Conv2d(256, 128, kernel_size=(1, 1), stride=(1, 1))
          (bn1): DistSyncBatchNorm(128, eps=1e-05, momentum=0.1, affine=True, track_running_stats=True)
          (fc2): Conv2d(128, 512, kernel_size=(1, 1), stride=(1, 1))
          (rsoftmax): rSoftMax()
        )
        (conv3): Conv2d(256, 1024, kernel_size=(1, 1), stride=(1, 1), bias=False)
        (bn3): DistSyncBatchNorm(1024, eps=1e-05, momentum=0.1, affine=True, track_running_stats=True)
        (relu): ReLU(inplace=True)
      )
      (22): Bottleneck(
        (conv1): Conv2d(1024, 256, kernel_size=(1, 1), stride=(1, 1), bias=False)
        (bn1): DistSyncBatchNorm(256, eps=1e-05, momentum=0.1, affine=True, track_running_stats=True)
        (conv2): SplAtConv2d(
          (conv): Conv2d(256, 512, kernel_size=(3, 3), stride=(1, 1), padding=(2, 2), dilation=(2, 2), groups=2, bias=False)
          (bn0): DistSyncBatchNorm(512, eps=1e-05, momentum=0.1, affine=True, track_running_stats=True)
          (relu): ReLU(inplace=True)
          (fc1): Conv2d(256, 128, kernel_size=(1, 1), stride=(1, 1))
          (bn1): DistSyncBatchNorm(128, eps=1e-05, momentum=0.1, affine=True, track_running_stats=True)
          (fc2): Conv2d(128, 512, kernel_size=(1, 1), stride=(1, 1))
          (rsoftmax): rSoftMax()
        )
        (conv3): Conv2d(256, 1024, kernel_size=(1, 1), stride=(1, 1), bias=False)
        (bn3): DistSyncBatchNorm(1024, eps=1e-05, momentum=0.1, affine=True, track_running_stats=True)
        (relu): ReLU(inplace=True)
      )
    )
    (layer4): Sequential(
      (0): Bottleneck(
        (conv1): Conv2d(1024, 512, kernel_size=(1, 1), stride=(1, 1), bias=False)
        (bn1): DistSyncBatchNorm(512, eps=1e-05, momentum=0.1, affine=True, track_running_stats=True)
        (avd_layer): AvgPool2d(kernel_size=3, stride=1, padding=1)
        (conv2): SplAtConv2d(
          (conv): Conv2d(512, 1024, kernel_size=(3, 3), stride=(1, 1), padding=(2, 2), dilation=(2, 2), groups=2, bias=False)
          (bn0): DistSyncBatchNorm(1024, eps=1e-05, momentum=0.1, affine=True, track_running_stats=True)
          (relu): ReLU(inplace=True)
          (fc1): Conv2d(512, 256, kernel_size=(1, 1), stride=(1, 1))
          (bn1): DistSyncBatchNorm(256, eps=1e-05, momentum=0.1, affine=True, track_running_stats=True)
          (fc2): Conv2d(256, 1024, kernel_size=(1, 1), stride=(1, 1))
          (rsoftmax): rSoftMax()
        )
        (conv3): Conv2d(512, 2048, kernel_size=(1, 1), stride=(1, 1), bias=False)
        (bn3): DistSyncBatchNorm(2048, eps=1e-05, momentum=0.1, affine=True, track_running_stats=True)
        (relu): ReLU(inplace=True)
        (downsample): Sequential(
          (0): AvgPool2d(kernel_size=1, stride=1, padding=0)
          (1): Conv2d(1024, 2048, kernel_size=(1, 1), stride=(1, 1), bias=False)
          (2): DistSyncBatchNorm(2048, eps=1e-05, momentum=0.1, affine=True, track_running_stats=True)
        )
      )
      (1): Bottleneck(
        (conv1): Conv2d(2048, 512, kernel_size=(1, 1), stride=(1, 1), bias=False)
        (bn1): DistSyncBatchNorm(512, eps=1e-05, momentum=0.1, affine=True, track_running_stats=True)
        (conv2): SplAtConv2d(
          (conv): Conv2d(512, 1024, kernel_size=(3, 3), stride=(1, 1), padding=(4, 4), dilation=(4, 4), groups=2, bias=False)
          (bn0): DistSyncBatchNorm(1024, eps=1e-05, momentum=0.1, affine=True, track_running_stats=True)
          (relu): ReLU(inplace=True)
          (fc1): Conv2d(512, 256, kernel_size=(1, 1), stride=(1, 1))
          (bn1): DistSyncBatchNorm(256, eps=1e-05, momentum=0.1, affine=True, track_running_stats=True)
          (fc2): Conv2d(256, 1024, kernel_size=(1, 1), stride=(1, 1))
          (rsoftmax): rSoftMax()
        )
        (conv3): Conv2d(512, 2048, kernel_size=(1, 1), stride=(1, 1), bias=False)
        (bn3): DistSyncBatchNorm(2048, eps=1e-05, momentum=0.1, affine=True, track_running_stats=True)
        (relu): ReLU(inplace=True)
      )
      (2): Bottleneck(
        (conv1): Conv2d(2048, 512, kernel_size=(1, 1), stride=(1, 1), bias=False)
        (bn1): DistSyncBatchNorm(512, eps=1e-05, momentum=0.1, affine=True, track_running_stats=True)
        (conv2): SplAtConv2d(
          (conv): Conv2d(512, 1024, kernel_size=(3, 3), stride=(1, 1), padding=(4, 4), dilation=(4, 4), groups=2, bias=False)
          (bn0): DistSyncBatchNorm(1024, eps=1e-05, momentum=0.1, affine=True, track_running_stats=True)
          (relu): ReLU(inplace=True)
          (fc1): Conv2d(512, 256, kernel_size=(1, 1), stride=(1, 1))
          (bn1): DistSyncBatchNorm(256, eps=1e-05, momentum=0.1, affine=True, track_running_stats=True)
          (fc2): Conv2d(256, 1024, kernel_size=(1, 1), stride=(1, 1))
          (rsoftmax): rSoftMax()
        )
        (conv3): Conv2d(512, 2048, kernel_size=(1, 1), stride=(1, 1), bias=False)
        (bn3): DistSyncBatchNorm(2048, eps=1e-05, momentum=0.1, affine=True, track_running_stats=True)
        (relu): ReLU(inplace=True)
      )
    )
    (avgpool): GlobalAvgPool2d()
    (fc): None
  )
  (head): DeepLabV3Head(
    (aspp): ASPP_Module(
      (b0): Sequential(
        (0): Conv2d(2048, 256, kernel_size=(1, 1), stride=(1, 1), bias=False)
        (1): DistSyncBatchNorm(256, eps=1e-05, momentum=0.1, affine=True, track_running_stats=True)
        (2): ReLU(inplace=True)
      )
      (b1): Sequential(
        (0): Conv2d(2048, 256, kernel_size=(3, 3), stride=(1, 1), padding=(12, 12), dilation=(12, 12), bias=False)
        (1): DistSyncBatchNorm(256, eps=1e-05, momentum=0.1, affine=True, track_running_stats=True)
        (2): ReLU(inplace=True)
      )
      (b2): Sequential(
        (0): Conv2d(2048, 256, kernel_size=(3, 3), stride=(1, 1), padding=(24, 24), dilation=(24, 24), bias=False)
        (1): DistSyncBatchNorm(256, eps=1e-05, momentum=0.1, affine=True, track_running_stats=True)
        (2): ReLU(inplace=True)
      )
      (b3): Sequential(
        (0): Conv2d(2048, 256, kernel_size=(3, 3), stride=(1, 1), padding=(36, 36), dilation=(36, 36), bias=False)
        (1): DistSyncBatchNorm(256, eps=1e-05, momentum=0.1, affine=True, track_running_stats=True)
        (2): ReLU(inplace=True)
      )
      (b4): AsppPooling(
        (gap): Sequential(
          (0): AdaptiveAvgPool2d(output_size=1)
          (1): Conv2d(2048, 256, kernel_size=(1, 1), stride=(1, 1), bias=False)
          (2): DistSyncBatchNorm(256, eps=1e-05, momentum=0.1, affine=True, track_running_stats=True)
          (3): ReLU(inplace=True)
        )
      )
      (project): Sequential(
        (0): Conv2d(1280, 256, kernel_size=(1, 1), stride=(1, 1), bias=False)
        (1): DistSyncBatchNorm(256, eps=1e-05, momentum=0.1, affine=True, track_running_stats=True)
        (2): ReLU(inplace=True)
        (3): Dropout2d(p=0.5, inplace=False)
      )
    )
    (block): Sequential(
      (0): Conv2d(256, 256, kernel_size=(3, 3), stride=(1, 1), padding=(1, 1), bias=False)
      (1): DistSyncBatchNorm(256, eps=1e-05, momentum=0.1, affine=True, track_running_stats=True)
      (2): ReLU(inplace=True)
      (3): Dropout(p=0.1, inplace=False)
      (4): Conv2d(256, 23, kernel_size=(1, 1), stride=(1, 1))
    )
  )
  (auxlayer): FCNHead(
    (conv5): Sequential(
      (0): Conv2d(1024, 256, kernel_size=(3, 3), stride=(1, 1), padding=(1, 1), bias=False)
      (1): DistSyncBatchNorm(256, eps=1e-05, momentum=0.1, affine=True, track_running_stats=True)
      (2): ReLU()
      (3): Dropout(p=0.1, inplace=False)
      (4): Conv2d(256, 23, kernel_size=(1, 1), stride=(1, 1))
    )
  )
)
=> loaded checkpoint '/home/lzj/materialSeg_ws/src/PyTorch-Encoding/experiments/segmentation/runs/minc_seg/deeplab/resnest101/default/checkpoint.pth.tar' (epoch 11)
Using poly LR scheduler with warm-up epochs of 0!
Starting Epoch: 11
Total Epoches: 120

=>Epoch 11, learning rate = 0.0001,                     previous best = 0.3910
Epoch: 11, Iter: 0, Speed: 0.058 iter/sec, Train loss: 0.883
…
